name: "alex_naive_pipeline"

# Datas
layer {
  name: "data"
  type: "Data"
  top: "data"
  include {
    phase: TRAIN
  }
  transform_param {
    crop_size: 227
    mean_file: "lmdbs/image_mean.binaryproto"
  }
  data_param {
    source: "lmdbs/train_img.lmdb"
    batch_size: 128
    backend: LMDB
  }
}
layer {
  name: "joint"
  type: "Data"
  top: "joint"
  include {
    phase: TRAIN
  }
  data_param {
    source: "lmdbs/train_jnt.lmdb"
    batch_size: 128
    backend: LMDB
  }
}
layer {
  name: "label"
  type: "Data"
  top: "label"
  include {
    phase: TRAIN
  }
  data_param {
    source: "lmdbs/train_attri.lmdb"
    batch_size: 128
    backend: LMDB
  }
}

layer {
  name: "data"
  type: "Data"
  top: "data"
  include {
    phase: TEST
  }
  transform_param {
    crop_size: 227
    mean_file: "lmdbs/image_mean.binaryproto"
  }
  data_param {
    source: "lmdbs/valid_img.lmdb"
    batch_size: 128
    backend: LMDB
  }
}
layer {
  name: "joint"
  type: "Data"
  top: "joint"
  include {
    phase: TEST
  }
  data_param {
    source: "lmdbs/valid_jnt.lmdb"
    batch_size: 128
    backend: LMDB
  }
}
layer {
  name: "label"
  type: "Data"
  top: "label"
  include {
    phase: TEST
  }
  data_param {
    source: "lmdbs/valid_attri.lmdb"
    batch_size: 128
    backend: LMDB
  }
}

# NETWORK DEFINITION
layer {
  name: "conv1"
  type: "Convolution"
  bottom: "stn"
  top: "conv1"
  param {
    lr_mult: 0.1
    decay_mult: 0.1
  }
  param {
    lr_mult: 0.2
    decay_mult: 0
  }
  convolution_param {
    num_output: 96
    kernel_size: 11
    stride: 4
    weight_filler {
      type: "gaussian"
      std: 0.01
    }
    bias_filler {
      type: "constant"
      value: 0
    }
  }
}
layer {
  name: "relu1"
  type: "ReLU"
  bottom: "conv1"
  top: "conv1"
}
layer {
  name: "norm1"
  type: "LRN"
  bottom: "conv1"
  top: "norm1"
  lrn_param {
    local_size: 5
    alpha: 0.0001
    beta: 0.75
  }
}
layer {
  name: "pool1"
  type: "Pooling"
  bottom: "norm1"
  top: "pool1"
  pooling_param {
    pool: MAX
    kernel_size: 3
    stride: 2
  }
}
layer {
  name: "conv2"
  type: "Convolution"
  bottom: "pool1"
  top: "conv2"
  param {
    lr_mult: 0.3
    decay_mult: 0.3
  }
  param {
    lr_mult: 0.6
    decay_mult: 0
  }
  convolution_param {
    num_output: 256
    pad: 2
    kernel_size: 5
    group: 2
    weight_filler {
      type: "gaussian"
      std: 0.01
    }
    bias_filler {
      type: "constant"
      value: 0.1
    }
  }
}
layer {
  name: "relu2"
  type: "ReLU"
  bottom: "conv2"
  top: "conv2"
}
layer {
  name: "norm2"
  type: "LRN"
  bottom: "conv2"
  top: "norm2"
  lrn_param {
    local_size: 5
    alpha: 0.0001
    beta: 0.75
  }
}
layer {
  name: "pool2"
  type: "Pooling"
  bottom: "norm2"
  top: "pool2"
  pooling_param {
    pool: MAX
    kernel_size: 3
    stride: 2
  }
}
layer {
  name: "conv3"
  type: "Convolution"
  bottom: "pool2"
  top: "conv3"
  param {
    lr_mult: 0.5
    decay_mult: 0.5
  }
  param {
    lr_mult: 1.0
    decay_mult: 0
  }
  convolution_param {
    num_output: 384
    pad: 1
    kernel_size: 3
    weight_filler {
      type: "gaussian"
      std: 0.01
    }
    bias_filler {
      type: "constant"
      value: 0
    }
  }
}
layer {
  name: "relu3"
  type: "ReLU"
  bottom: "conv3"
  top: "conv3"
}
layer {
  name: "conv4"
  type: "Convolution"
  bottom: "conv3"
  top: "conv4"
  param {
    lr_mult: 0.5
    decay_mult: 0.5
  }
  param {
    lr_mult: 1.0
    decay_mult: 0
  }
  convolution_param {
    num_output: 384
    pad: 1
    kernel_size: 3
    group: 2
    weight_filler {
      type: "gaussian"
      std: 0.01
    }
    bias_filler {
      type: "constant"
      value: 0.1
    }
  }
}
layer {
  name: "relu4"
  type: "ReLU"
  bottom: "conv4"
  top: "conv4"
}

# LOCALIZATION NETWORK
layer {
  name: "conv5"
  type: "Convolution"
  bottom: "conv4"
  top: "conv5"
  param {
    lr_mult: 0.1
    decay_mult: 0.1
  }
  param {
    lr_mult: 0.2
    decay_mult: 0
  }
  convolution_param {
    num_output: 256
    pad: 1
    kernel_size: 3
    group: 2
    weight_filler {
      type: "gaussian"
      std: 0.01
    }
    bias_filler {
      type: "constant"
      value: 0.1
    }
  }
}
layer {
  name: "relu5"
  type: "ReLU"
  bottom: "conv5"
  top: "conv5"
}
layer {
  name: "pool5"
  type: "Pooling"
  bottom: "conv5"
  top: "pool5"
  pooling_param {
    pool: MAX
    kernel_size: 3
    stride: 2
  }
}
layer {
  name: "fc6-new"
  type: "InnerProduct"
  bottom: "pool5"
  top: "fc6-new"
  param {
    lr_mult: 0.1
    decay_mult: 0.1
  }
  param {
    lr_mult: 0.2
    decay_mult: 0
  }
  inner_product_param {
    num_output: 2048
    weight_filler {
      type: "gaussian"
      std: 0.005
    }
    bias_filler {
      type: "constant"
      value: 0.1
    }
  }
}
layer {
  name: "relu6"
  type: "ReLU"
  bottom: "fc6-new"
  top: "fc6-new"
}
layer {
  name: "drop6"
  type: "Dropout"
  bottom: "fc6-new"
  top: "fc6-new"
  dropout_param {
    dropout_ratio: 0.3
  }
}
layer {
  name: "fc7-new"
  type: "InnerProduct"
  bottom: "fc6-new"
  top: "fc7-new"
  param {
    lr_mult: 0.1
    decay_mult: 0.1
  }
  param {
    lr_mult: 0.2
    decay_mult: 0
  }
  inner_product_param {
    num_output: 2048
    weight_filler {
      type: "gaussian"
      std: 0.005
    }
    bias_filler {
      type: "constant"
      value: 0.1
    }
  }
}
layer {
  name: "relu7"
  type: "ReLU"
  bottom: "fc7-new"
  top: "fc7-new"
}
layer {
  name: "drop7"
  type: "Dropout"
  bottom: "fc7-new"
  top: "fc7-new"
  dropout_param {
    dropout_ratio: 0.3
  }
}
layer {
  name: "fc8-new"
  type: "InnerProduct"
  bottom: "fc7-new"
  top: "fc8-new"
  param {
    lr_mult: 0.05
    decay_mult: 0.05
  }
  param {
    lr_mult: 0.1
    decay_mult: 0
  }
  inner_product_param {
    num_output: 20
    weight_filler {
      type: "gaussian"
      std: 0.01
    }
    bias_filler {
      type: "constant"
      value: 0
    }
  }
}

# Joint Regression
layer {
  name: "reg_loss"
  type: "EuclideanLoss"
  bottom: "fc8-new"
  bottom: "joint"
  top: "reg_loss"
  loss_weight: 4.0
}

# LOCALIZATION
layer {
  name: "bbox_gen"
  type: "BBoxPipeline"
  bottom: "fc8-new"
  top: "bbox_gen"
  bbox_pipeline_param  {
    connection_config_file: "torso_connection.txt"
    x_ext_factor: 1.2
    y_ext_factor: 1.2
  }
}
layer {
  name: "stn"
  type: "SpatialTransformer"
  bottom: "conv4"
  bottom: "bbox_gen"
  top: "stn"
  spatial_transformer_param {
    theta1: 0
    theta3: 0
  }
}

# CLASSIFICATION NETWORK
layer {
  name: "conv5-class"
  type: "Convolution"
  bottom: "stn"
  top: "conv5-class"
  param {
    lr_mult: 1.0
    decay_mult: 1.0
  }
  param {
    lr_mult: 2.0
    decay_mult: 0
  }
  convolution_param {
    num_output: 256
    pad: 1
    kernel_size: 3
    group: 2
    weight_filler {
      type: "gaussian"
      std: 0.01
    }
    bias_filler {
      type: "constant"
      value: 0.1
    }
  }
}
layer {
  name: "relu5-class"
  type: "ReLU"
  bottom: "conv5-class"
  top: "conv5-class"
}
layer {
  name: "pool5-class"
  type: "Pooling"
  bottom: "conv5-class"
  top: "pool5-class"
  pooling_param {
    pool: MAX
    kernel_size: 3
    stride: 2
  }
}
layer {
  name: "fc6-class"
  type: "InnerProduct"
  bottom: "pool5-class"
  top: "fc6-class"
  param {
    lr_mult: 0.1
    decay_mult: 0.1
  }
  param {
    lr_mult: 0.2
    decay_mult: 0
  }
  inner_product_param {
    num_output: 512
    weight_filler {
      type: "gaussian"
      std: 0.005
    }
    bias_filler {
      type: "constant"
      value: 0.1
    }
  }
}
layer {
  name: "relu6-class"
  type: "ReLU"
  bottom: "fc6-class"
  top: "fc6-class"
}
layer {
  name: "drop6-class"
  type: "Dropout"
  bottom: "fc6-class"
  top: "fc6-class"
  dropout_param {
    dropout_ratio: 0.5
  }
}
layer {
  name: "fc7-class"
  type: "InnerProduct"
  bottom: "fc6-class"
  top: "fc7-class"
  param {
    lr_mult: 1.0
    decay_mult: 1.0
  }
  param {
    lr_mult: 2.0
    decay_mult: 0
  }
  inner_product_param {
    num_output: 256
    weight_filler {
      type: "gaussian"
      std: 0.005
    }
    bias_filler {
      type: "constant"
      value: 0.1
    }
  }
}
layer {
  name: "relu7-class"
  type: "ReLU"
  bottom: "fc7-class"
  top: "fc7-class"
}
layer {
  name: "drop7-class"
  type: "Dropout"
  bottom: "fc7-class"
  top: "fc7-class"
  dropout_param {
    dropout_ratio: 0.3
  }
}
layer {
  name: "fc8-class"
  type: "InnerProduct"
  bottom: "fc7-class"
  top: "fc8-class"
  param {
    lr_mult: 1.0
    decay_mult: 1.0
  }
  param {
    lr_mult: 2.0
    decay_mult: 0
  }
  inner_product_param {
    num_output: 20
    weight_filler {
      type: "gaussian"
      std: 0.01
    }
    bias_filler {
      type: "constant"
      value: 0
    }
  }
}

# OUTPUT AND LOSS
layer {
  name: "accuracy"
  type: "Accuracy"
  bottom: "fc8-class"
  bottom: "label"
  top: "accuracy"
  include {
    phase: TEST
  }
}
layer {
  name: "loss"
  type: "SoftmaxWithLoss"
  bottom: "fc8-class"
  bottom: "label"
  top: "loss"
}
